logs/wheel_legged/exported/policies/policy_1.pt (torch, 69256 bytes, 8 tensors)

weight f4 [128, 30]
00000000: c0ea 693e 5154 1c3e d562 e9bd bdc6 143e
00000010: 08be babe 8d7f 53be 3360 10be 3107 e3bd
00000020: 246f 593e 98cf 5e3e 5912 12bf 626c 15bc
00000030: 4c14 943d 880c 223e 1cd9 f6bd b88e 66be
00000040: 5047 dfbe 7cf8 56bd 4524 043f 533a cd3e
00000050: 77a0 813e 4b0f e43d d074 203e 1284 8e3d
00000060: 1e44 c2bc 938a 8bbe c32a e8bd d4ed af3d
00000070: 63c1 963c c870 893d b240 febd 07e6 acbe
00000080: 3e5c 98be acc4 bdbf 8d04 dc3e 7fb0 eebe
00000090: 1beb 083e 026c 713c b9d6 01be 9236 e93e
000000a0: 2bbf c2bd e9c5 81bd 9112 d0be 75d6 163f
000000b0: a04f 163d 324e b93e aa70 303e b769 1fbd
000000c0: efe3 80bd a080 babd 9165 82bc 1d59 693c
000000d0: a594 0abe 8af0 06be 2380 1bbe 8132 c8bd
000000e0: c88c 92bd e656 45be cc17 7d3d 8033 efbc
000000f0: 6966 37be 1bba 1d3d cd29 af3e f8c1 493e
00000100: 5756 933f d252 3a3c f303 d0bb 451b 2fbe
00000110: 2ba1 c5bd 3a52 683e c9f4 1dbc d98b 58bc
00000120: 17b6 3bbd a22b f3bd a7d1 433c ad67 44bd
00000130: de34 75be 644d c33d f9bb a43d 575b 85bd
00000140: ed52 2abd a7ac 5fbe 6c3e a1bd 2680 cabe
00000150: 6fd6 6e3e 0a70 97be cd49 8ebe c0a4 d13d
00000160: 2e20 023e 326c e33d a4cc 8e3d 8729 cbbd
00000170: 83f2 1ebe f6d7 2fbe bbeb 213f 1ff1 8e3a
00000180: 2a5e 4a3e 3a5a b83e f32a 8b3e f026 8e3c
00000190: 9e1f 83bd 8df2 d73c 2d9a 203f c76b d3be
000001a0: 22d4 5c3d 945e 693c 3a18 b4bd cd38 00be
000001b0: 7223 12be 0566 5ebe 8d2f 1f3e a646 2ebe
000001c0: 1b1d 8bbe 1491 4f3e e3fd c1ba 5855 70bd
000001d0: dd1e 99be 4f37 bc3d d52d ae3c 895b 50bd
000001e0: 2eec 573c d0e1 c7bd 255a e3bd ad61 2cbf
000001f0: 2f47 6d3e 15f8 b8bd 56e5 bd3e e541 ea3e
00000200: 72ab 823d f7c5 dc3d 350e 22bf 093b bcbd
00000210: 5791 083e 8cce 233e 674b 313d fd9b f53e
00000220: c1d4 21be 9fa5 a53e 60df 38be c0ce 7f3e
00000230: fc1b 1c3e 7086 1abe 723d 7ebd 9f09 0c3d
00000240: d0f6 1fbd 35f2 babd 54ee ab3d c5c1 14be
00000250: 23d2 50be 1dff f03d 6e51 433e 5c02 323d
00000260: 78a9 09be 1708 8f3c a87e b9be 020b 423e
00000270: 8025 453e b74f 943c 94b5 d4bd 95ba e1bd
00000280: a89c f3bc f4e8 c0bb bd4e 53be 60f6 9bbe
00000290: 24a7 273e 63ec 41be 413a 583c f994 06be
000002a0: aa59 6a3e e4ff 8c3d 92c0 aebd 6950 2fbe
000002b0: f487 1f3e 2208 f43d ec1b b3bc f8f1 05bf
000002c0: b495 2a3e 4499 a1bd 663f 85be 5449 6e3e
000002d0: bc60 533e 9fb3 62bd 7d82 8c3e a08e 1d3f
000002e0: bc87 0b3e 0167 b13c e52e 27be 58d6 1dbe
000002f0: f520 40bd 5c05 b4be a5b6 b73e 454f 9b3d
00000300: 2c4f 08bf 3266 0fbe ae2a 82bd 93b5 6dbe
00000310: 7805 a23d 4f48 b9bd 1ddc 813e 1cf2 d6bd
00000320: 2501 56bd 45a3 00be 8713 583d a21c 2d3d
00000330: 5146 f53d 27d3 0a3e bf5a 3d3d 75bd 9b3e
00000340: 4c3c 0d3e bf6f 123e f645 adbe e2ad 20bd
00000350: 4173 1abe 3fa1 f0bd 160a 413e b492 aa3e
00000360: 0f6f 14be a990 f03e 7782 f3bd 845e 383f
00000370: 3653 46bf fa4a 6ebc 9af9 a8bd ae69 d4bc
00000380: 72cd d7bb d801 a13d a183 3abe 62cb b43e
00000390: b5f5 b9be ad5c 263e cc26 3e3c 9ebf 44bd
000003a0: 1502 2cbe 5675 4f3e 3072 84be b7be 373e
000003b0: 8368 c43e 2e6a e03d 78ea 7c3d ed5c 57bd
000003c0: f695 02be 97cf 243d f5e7 b9be 2a2b 233d
000003d0: d0c2 12be 72b9 f2bd 8025 f6be 2f05 bd3d
000003e0: 29d9 1cbe d480 b03d af1c 4e3e a5b4 7abc
000003f0: 7181 4f3e 7633 a0be 9e02 a03c ff39 5ebd
0.22843456 0.15266539 -0.11395804 0.14528938 -0.36473107 -0.20654126 -0.14099197 -0.11085356
0.21233803 0.21758878 -0.57059246 -0.009120079 0.07230434 0.15825093 -0.12053129 -0.2251538
-0.43609095 -0.052483067 0.5161784 0.4008356 0.25317737 0.111357294 0.1566956 0.06958784
-0.023714121 -0.2725416 -0.11336281 0.08590284 0.01840276 0.067109644 -0.124146834 -0.33769247
-0.29757875 -1.4825644 0.42972222 -0.4661903 0.13370936 0.014735224 -0.12679566 0.45549446
-0.09509119 -0.063365765 -0.40639165 0.58920985 0.03669703 0.3619247 0.17230478 -0.038919177
-0.06293475 -0.091065645 -0.015917571 0.014242438 -0.13533266 -0.13177696 -0.15185599 -0.09775258
-0.07155758 -0.1927143 0.061790273 -0.029199362 -0.1791016 0.038507562 0.3421158 0.197029
1.1510724 0.011372285 -0.006348127 -0.17100246 -0.09649881 0.22687617 -0.009640881 -0.013216936
-0.04582795 -0.11873557 0.0119518405 -0.047950435 -0.23945948 0.095362455 0.080436654 -0.06511562
-0.04158299 -0.21843205 -0.07873234 -0.39550894 0.23323987 -0.29577667 -0.2779068 0.10236502
0.12707588 0.11104621 0.06972626 -0.0992003 -0.15522198 -0.17172226 0.6325032 0.00109056
0.19762483 0.36006337 0.27181205 0.017352551 -0.06402515 0.026360774 0.62735254 -0.41293165
0.053913243 0.014243741 -0.08793683 -0.12521668 -0.14271334 -0.21718605 0.15545483 -0.17019138
-0.27170643 0.20270187 -0.0014800396 -0.05867514 -0.2990636 0.09190237 0.021262089 -0.050868545
0.013178868 -0.09759867 -0.11101178 -0.6733654 0.23171686 -0.09031693 0.37089032 0.457534
0.06380357 0.10779946 -0.6330293 -0.091909476 0.13336693 0.1599676 0.0432848 0.47970572
-0.15803815 0.3235292 -0.18053961 0.24981213 0.1524505 -0.15090346 -0.062070318 0.034188863
-0.039053738 -0.091282286 0.08395067 -0.14527042 -0.20392661 0.11767409 0.19074032 0.04345928
-0.13443553 0.017459912 -0.36229444 0.18949512 0.19252586 0.018104417 -0.10386196 -0.11021916
-0.029737785 -0.005887145 -0.20635505 -0.30461407 0.16372353 -0.1893783 0.013197483 -0.13142766
0.22885767 0.06884745 -0.085328236 -0.17120518 0.15579206 0.11915614 -0.0218639 -0.5232234
0.1665867 -0.07890561 -0.26024932 0.2327016 0.2064237 -0.05534708 0.27443305 0.61545753
0.13625997 0.021655561 -0.16326483 -0.15413797 -0.04690643 -0.3516034 0.35881534 0.07583479
-0.53245807 -0.14003828 -0.06355797 -0.23213796 0.07911199 -0.09046995 0.25363246 -0.104953974
-0.052247185 -0.12562282 0.052752998 0.042263635 0.119763024 0.1355711 0.04622912 0.30417982
0.13792533 0.1430044 -0.33842438 -0.039228328 -0.15083028 -0.11749505 0.18851504 0.3331505
-0.1449549 0.46985367 -0.118901186 0.7201922 -0.7747072 -0.014544243 -0.08250733 -0.025929298
-0.0065857703 0.0786168 -0.18214275 0.3531142 -0.36320272 0.1624629 0.01160593 -0.048034303
-0.16797669 0.20259604 -0.25868368 0.17943846 0.38360986 0.10957752 0.061747044 -0.052578855
-0.12752518 0.040237036 -0.36309782 0.039836086 -0.14332128 -0.11851777 -0.48075485 0.09229504
-0.15317215 0.08618322 0.2012813 -0.015301858 0.20264222 -0.31289262 0.019532498 -0.054254528

bias f4 [128]
00000000: 72d0 2ebe b59a 8dbc a06c d83c ba7c 40be
00000010: 3869 82bd 3552 1abe 390f d33b 192e 16be
00000020: ffaf 31bd b5eb 2bbd c0de 40be 3650 f23c
00000030: 436a b73d b67d 74be 34d8 70be d18a 293e
00000040: 7296 bebe 205f 623e 6ce4 383e c58b b23d
00000050: a681 3ebd 7aa0 a0bd 2782 86be fe39 08be
00000060: ac14 09be 0ccb bf3d e4d4 f1bd e2cd bd3d
00000070: 2cc0 1b3d 978d 063e c768 383e 8ce7 92bd
00000080: cc34 da3d 8861 b43d 36c6 a83d 44a4 6fbe
00000090: 65c8 c2bd 9142 7abe d9f3 713d b5a4 9a3d
000000a0: 9c40 49bd 90f1 c0bd a39b babc bec8 53bb
000000b0: 4913 373d 8213 3cbe 9875 d33d 7917 adbb
000000c0: 747e 003e 604a b93d a7c5 e1bd e1c0 423c
000000d0: 6467 bb3d de88 81bd 5250 2abd c0b4 743d
000000e0: 2434 9f3d 3160 f1bd 9444 ab3d 14ee 343e
000000f0: b073 bdbe 91ad 3abe 6034 01bd 2cd7 b1ba
00000100: a627 ea3d 076a 70be 8642 4f3e 5e10 033d
00000110: 63bb afbe 161e e33d 4d67 55be dda5 9fbd
00000120: 540b 5d3c d3df a4bd 3c61 56be 48f6 253d
00000130: e29f febd 4b0b 523d 101b debd 543c 86be
00000140: b35a e7bd 3647 35be 5a80 8bbe 7f8e f7bd
00000150: 65a8 70be e226 873e 6b76 a7be b852 883d
00000160: dc8f 59be 2028 453e 8354 4ebc ef4a 44bd
00000170: 8883 4e3e b193 333c 096e 61be e63e bcbc
00000180: fe18 3e3e 7470 2dbe d4d1 38bd 9df8 36be
00000190: 340f 1cbc 95a7 e13c ea22 963d e16b e8bd
000001a0: 54cf 723d 5bc6 8e3d 24dd 3ebd 5382 96bd
000001b0: 37de cabe 2b58 a1bc d19c fc3d 7aae a1bd
000001c0: dc81 dabd 025a 2abe 9a6a 233e 4aa0 d0bd
000001d0: 7da8 393e 57a0 17be e120 e3bd b9e8 04be
000001e0: b632 9bbe c8bf 453e d011 953d 23fb 68be
000001f0: 8bf6 55bc cd71 80be 8faf cbbc 2cc8 933d
-0.17071703 -0.017285684 0.026418984 -0.1879758 -0.06367725 -0.15070422 0.0064410237 -0.14666022
-0.043380734 -0.041972835 -0.18834972 0.029579263 0.08955815 -0.2387608 -0.23519975 0.1655686
-0.37224156 0.221066 0.18055886 0.08718065 -0.04651036 -0.078431085 -0.26271173 -0.13303372
-0.13386792 0.093649 -0.11808184 0.09267785 0.038025066 0.1313995 0.1800872 -0.0717307
0.106546015 0.08807665 0.08240931 -0.23402506 -0.095108785 -0.24439456 0.059070442 0.075509466
-0.049133882 -0.094210744 -0.022779291 -0.0032315697 0.044696126 -0.18366817 0.103251636 -0.005282339
0.12548238 0.09047389 -0.11024027 0.011886806 0.091505796 -0.063249335 -0.041580506 0.05974269
0.07773617 -0.11785925 0.083626896 0.17668945 -0.37002325 -0.18230273 -0.03154409 -0.0013568155
0.114333436 -0.23477946 0.2024022 0.03199803 -0.34322652 0.11089723 -0.20840187 -0.07795308
0.01349147 -0.080505036 -0.2093553 0.040518075 -0.12432839 0.0512803 -0.108450055 -0.26217902
-0.112965964 -0.17702946 -0.27246362 -0.12087726 -0.23501737 0.26396853 -0.32707533 0.06656402
-0.21246284 0.19253588 -0.012593391 -0.047923025 0.20167363 0.010960505 -0.22014631 -0.022979211
0.18564221 -0.16937429 -0.045121983 -0.17868276 -0.009525109 0.02754573 0.07330878 -0.11348701
0.059279755 0.06971427 -0.046597615 -0.07349076 -0.3962266 -0.019695362 0.12334598 -0.07894607
-0.106693 -0.16635898 0.15958634 -0.10186823 0.1813068 -0.14807259 -0.110902555 -0.12979402
-0.30312127 0.1931144 0.07278788 -0.22752051 -0.013059269 -0.25086823 -0.024863986 0.07215914

weight f4 [64, 128]
00000000: a803 42be 8013 333d cb80 1dbe 24be 4bbe
00000010: 51cd dabc 5029 bfbd 784f 03bb 0b48 73bd
00000020: bc5d b13d 7aa0 13bd 48fa 1bbd ada6 a63d
00000030: b723 3dbe 6f40 d7bc 8a07 c93d 4b9d 5f3d
00000040: 7ce7 12be 587d c5bd edbd 5f3d 3ce9 133c
00000050: 9bc2 7c3e a3ce 413e 1d2b aabd 0fcd 7cbd
00000060: 20c8 ccbd 3690 e03d f469 efbd 39e0 4e3d
00000070: cd13 6f3c e0cd d73d f3f8 003c 0264 aebe
00000080: ac4e 8b3c 1870 5ebd 21d5 083d 4acc 5fbd
00000090: fe07 fbbd 5504 f1bc 7426 4dbd 13da c23d
000000a0: f379 00be 2f34 18bc 1970 d93c b365 74be
000000b0: 874f e73d 83bd 2ebe 832e e6bc 0af1 d6bd
000000c0: 0026 103e 7e8f ec3d b531 043e cbd3 83ba
000000d0: 0b13 123d d7e3 d6bc ed8d f2bd 2250 7bbc
000000e0: 8a9a cfbb 34ec 343d 6ba0 b7bd a3b9 8a3d
000000f0: 7397 eabd a771 a83d 29b5 9bbd 28af 083d
00000100: f73b be3d 3e17 28bd 8790 183e c39b f7bd
00000110: 2ddb 68be b0cb 06be a7fc fcbd b95a ecbc
00000120: bbc1 cd3d 8b30 4ebd c91a 13be c76f 863c
00000130: 1c34 213e c74e 5dbd 1f4b b6bd 6188 50be
00000140: 4cef 12be 9c54 fbbc 82ba 5dbe 002b 04bd
00000150: d46a 80bd d0c9 cc3d 373c 9dbd 045a ac3c
00000160: d472 04be d29d 0a3c 9f89 46bd 3cb7 153d
00000170: 62a2 bebc be21 653c 06ef c83c 5292 33bd
00000180: 969a 353e a1d8 8bbe e8d2 be3d 6be6 1abd
00000190: e532 87bb 10f7 bf3d 7a3c db3d 2af7 963d
000001a0: f023 e73d 50b9 38be 01b6 713d 3c74 263c
000001b0: 06c0 08bd 5705 f5bb 9080 993d b491 b6bd
000001c0: dd9f abbd fb72 7d3d d6d4 be3c fa13 013e
000001d0: 9004 23bc 5882 203c 0304 5dbd ce8e 91bc
000001e0: 06c2 02be c96d f0bc fff0 9a3d 7348 0dbe
000001f0: 331c 91bd 4063 c7bc 6c5d 01bd 8dac fb3d
00000200: aca0 e4bc 6c36 a93c e6a3 963d 5114 74bb
00000210: c1e7 fd3d 9f2f 98bd d597 80be 442a 0ebc
00000220: 913e b4bd ada7 f73c 640b 4e3d 0f5e debc
00000230: b1b3 143e c36d 29bd 3767 9dbe 913b 2e3e
00000240: e9b8 08be d538 bfbd 040e 00be a791 ae3d
00000250: d3cb a1bd da91 d83d 3041 1abe 3267 eebd
00000260: 19d9 0c3e 653c 3fbd fee2 2b3b 84be 803d
00000270: f4b7 9b3d f4b8 80be 3b2c 2abe ae93 b1bd
00000280: f989 153c 6ec9 efbd 0774 c23d 0308 d6bd
00000290: 09d7 dabd 04f9 0dbd 4d2d 89bd fa0b 8fbe
000002a0: f66d c13e 7155 83be 7e1b b23d 8ace 843a
000002b0: 9efb 22bd 6875 863d c44b ffbc c0b1 7c3d
000002c0: c3d9 50bc 515a 1a3e 9649 673d 8983 0f3c
000002d0: 3d3e 5f3e 485a ffbd 4a19 963d 9c09 1c3e
000002e0: 9772 40bd 2e00 b4bc f8e4 ef3d 8a72 eb3d
000002f0: e955 efbd b543 8fbe 84ce 0d3d 1c26 b13d
00000300: a290 8fbd e86f b9bd 829f 3ebd 677a 18be
00000310: 9cb9 c4be 44c5 973d 49cf e3bc 6719 0bbe
00000320: 3590 8fbd e71c fbbc 03c0 0dbe 7aed ad3c
00000330: 0a31 35bd 510e 29bd 7f9e 973d dba8 8fbd
00000340: b184 e9bd 5e6f 93bc d3e4 2cbd 3a45 71bd
00000350: 1bc8 a3bd 346d e03d 75cd 04be 3043 5bbd
00000360: 0b08 c03e 1365 88bc 84c0 253c 7d34 e3bd
00000370: 7f6b a93d c748 ec3c 7898 44be e612 09bd
00000380: ef9c bf3d c28b bfbe f355 223e 4ab1 a83d
00000390: 0a8f 85bd 576e 173e f99c cf3d 757d 903d
000003a0: d69e 52be a8b2 00be 279f 84bd 1946 a5bc
000003b0: 2ef2 dfbd fbb1 bebd 16da ef3d f37c dfbd
000003c0: c77f 49be fa4a 643d 724f 173d 2a1f 46be
000003d0: 7b6c 8abd 3b6c 3f3d cd86 e53d 216b c4bb
000003e0: 5d3d 9bbd 028d b73d 8184 023e c3ca c4bd
000003f0: 8785 fa3d 3015 153c 602c e53d 244c a4bc
-0.18946707 0.04371977 -0.15381162 -0.19896752 -0.02670923 -0.093340516 -0.002003638 -0.059394877
0.086604565 -0.036041714 -0.038080484 0.0813726 -0.18470655 -0.026275842 0.09815891 0.054593366
-0.14346117 -0.09643048 0.054624487 0.009027775 0.24683611 0.18926482 -0.083090045 -0.061718997
-0.09999108 0.10965006 -0.11690131 0.050506804 0.014592123 0.105373144 0.007871854 -0.34060675
0.017005287 -0.05430612 0.03340638 -0.054638185 -0.12257384 -0.029421011 -0.0500855 0.095142506
-0.1254652 -0.009289785 0.02654271 -0.2386692 0.112944655 -0.1706448 -0.02809835 -0.10495193
0.14076996 0.115508065 0.12909587 -0.0010057626 0.035662692 -0.02623169 -0.118434764 -0.015338929
-0.006335561 0.044170573 -0.08966144 0.06773689 -0.11454668 0.082248025 -0.07602913 0.033370167
0.09288781 -0.04103779 0.14898883 -0.12090256 -0.22739859 -0.13163638 -0.12352877 -0.028851854
0.10046717 -0.050339263 -0.14365686 0.016410721 0.15742534 -0.054030206 -0.08901047 -0.20364524
-0.14349097 -0.030679993 -0.21653178 -0.03226757 -0.06270376 0.0999943 -0.07677501 0.021039017
-0.12934428 0.008460479 -0.04847109 0.0365517 -0.02327079 0.013985096 0.024528038 -0.043840714
0.17734751 -0.27313712 0.09317571 -0.0378174 -0.00412594 0.09373295 0.10704894 0.073713616
0.112861514 -0.18039441 0.059011463 0.010159548 -0.033386253 -0.007477443 0.074952245 -0.089145094
-0.08380101 0.061877232 0.023294847 0.12605277 -0.009949818 0.009796701 -0.053958904 -0.01776829
-0.12769327 -0.029349225 0.075654976 -0.13797168 -0.07085457 -0.024339318 -0.031583235 0.12288771
-0.027908646 0.020655833 0.0735548 -0.0037243555 0.12397719 -0.07430958 -0.2511584 -0.008677069
-0.08800996 0.030231321 0.05030383 -0.02714446 0.14521672 -0.041364443 -0.3074281 0.1701491
-0.13351788 -0.09337012 -0.12505347 0.08523875 -0.079002045 0.10574694 -0.1506393 -0.11640777
0.13754691 -0.046688456 0.0026227827 0.06286338 0.07603446 -0.25141108 -0.16618435 -0.08670746
0.0091271335 -0.117083415 0.09494787 -0.10450747 -0.10685546 -0.034661308 -0.066980936 -0.27938825
0.37779206 -0.25651124 0.0869665 0.0010132354 -0.039790742 0.06565362 -0.031164058 0.061692953
-0.012747231 0.15073515 0.05646666 0.008759388 0.21801086 -0.12468392 0.07329042 0.1523804
-0.04698428 -0.021972742 0.11713594 0.11496456 -0.11686308 -0.27981344 0.034620777 0.08649847
-0.070100084 -0.090545475 -0.046538837 -0.14890443 -0.3842286 0.07410672 -0.027808802 -0.13583909
-0.07009927 -0.03065343 -0.13842778 0.021231402 -0.04423622 -0.04127342 0.074032776 -0.070146285
-0.11402262 -0.01799744 -0.04221041 -0.05890391 -0.079971515 0.10958329 -0.12969 -0.053530872
0.37506136 -0.016649758 0.0101167 -0.11093996 0.082724564 0.028843297 -0.19198787 -0.03346529
0.093561046 -0.37411314 0.158531 0.0823694 -0.06521423 0.14788185 0.10137362 0.07055179
-0.20568404 -0.12568152 -0.064756684 -0.020175027 -0.10934864 -0.09311291 0.117115185 -0.10912504
-0.1967765 0.055735566 0.036941 -0.19347826 -0.06758972 0.046734076 0.11207352 -0.005994216
-0.075800635 0.08962442 0.12745859 -0.09608986 0.122324996 0.00909929 0.111901045 -0.020055838

bias f4 [64]
00000000: e4ce ac3d e73d ee3c 928c 103d 5112 f53c
00000010: 7554 4ebe 64d8 6fbd ab52 3e3b 6ef5 23bc
00000020: 7ba6 f8bd 5fa6 41bd 1050 44be 312e 91bd
00000030: 1393 b53d 127d 6dbd d513 8bbd 51b7 d6bd
00000040: 8660 14bd bfcd 18bd 8a09 45bc 0d35 ad3d
00000050: 6c75 803d 5aec d7bb d663 63bd 854c bebd
00000060: d748 60bd ac81 99bb ae44 f8bc d724 103e
00000070: 0965 80bd 96e4 163e b3bd b1bd 12ae 49bd
00000080: f702 523d e537 113c 4d15 63bc f61c afbd
00000090: 28fa df3c cd48 3abe 1a9d 93bd e84e a03d
000000a0: 4808 043e 96fb 093e 460b 25be 5309 e2bc
000000b0: b78b 40be 9e71 83bb b279 6d3d be87 363d
000000c0: 2423 babd f971 493b 7ae4 a8bd ec7c edbc
000000d0: 5dcc 76bd 8e99 2bbc 9b67 a03d 4792 5dbd
000000e0: f3d1 aebc c65a bdbd 87a5 68bd 5bd8 2f3d
000000f0: 566f 953d 9528 67bd 2b0e 6fbe ea0a 21bd
0.08437899 0.029082252 0.03529031 0.02991596 -0.20149405 -0.058555976 0.0029040973 -0.0100072455
-0.12141129 -0.047277804 -0.19171166 -0.070888884 0.08865943 -0.057980604 -0.06790892 -0.104841836
-0.036224864 -0.03730559 -0.0120262 0.08457384 0.062723964 -0.0065894546 -0.055515133 -0.09291939
-0.054756965 -0.0046846475 -0.030306187 0.14076553 -0.06269271 0.14735636 -0.086787604 -0.049238272
0.05127236 0.008863424 -0.013860059 -0.08550446 0.027340963 -0.18191834 -0.07207699 0.0782755
0.12893784 0.13474879 -0.16117582 -0.027592337 -0.18803297 -0.004011347 0.057977386 0.044563048
-0.09088734 0.00307381 -0.082467034 -0.028990231 -0.06025349 -0.010473622 0.07832261 -0.05409458
-0.021340346 -0.09245829 -0.056798484 0.042930942 0.07296626 -0.056435186 -0.23345248 -0.03931705

weight f4 [32, 64]
00000000: 1143 d7bd b792 8ebe 293b 9bbc 5e64 7ebe
00000010: b060 4f3e 0fe1 423e 0ddc 493d 2bab 5abe
00000020: 9d83 8fbb a67a 21bd afae 2c3d 3615 193e
00000030: 3563 ad3d 36c2 173c 8da0 023e aa73 af3e
00000040: c5ea d6bc bab5 2abe 9b73 7d3c 61c4 b5bc
00000050: 0c4c 023e 1140 083d 8e17 6fbe d221 14be
00000060: 5988 c53c 3369 833b 75a8 e0bd 761c 5e3d
00000070: b333 42bd 56b7 0ebd 01d5 123e eaac adbd
00000080: 887b 13bc 21b5 d93c ee0a b6bd 329a 0abd
00000090: f495 8d3c 3ef0 553e dc13 2ebe d969 5dbc
000000a0: 73b2 28bd 064e c8bd 7e7b 24bd c60e 1dbd
000000b0: ff6f 803e 8fbd 143e c058 f3bd 23b7 a6bd
000000c0: 0a2e 8dbc 2946 60bd 2f98 bc3b d69c 05bc
000000d0: 3308 9c3c beb0 a03d f877 3f3d 553a e03d
000000e0: a504 6fbd 88ee 2bbd 3ec8 05bd 4b14 583d
000000f0: a629 9e3d e5ad 1dbe c7c5 793d e126 3e3e
00000100: 774a 16be bfe8 9d3d 3fb9 88be c932 98bd
00000110: 5d05 553e 05cb 16bc cf26 99bc 4589 b23c
00000120: 2260 8f3d 794f 48be e0b0 febd bdfd 493e
00000130: e204 36be 4451 75be 5a89 97bd cd66 ce3c
00000140: 7030 f23d 3b8a 4fbe f110 99bd 2fba cc3d
00000150: 081e 17be 3a4c cbbe d829 24bd 6720 c63d
00000160: 2744 69bc 9cf9 b1bd 922e 8bbd 9aac b8bd
00000170: 880e 123e 303c 413e af21 103d 0cb2 64bd
00000180: d4f0 0dbd 5398 5dbd ef24 093d c17e de3c
00000190: 2151 9cbd 7f2e c83d b290 473e c18b cebc
000001a0: d7a6 d73d f6d4 32be 8c91 9bbd 362d 383e
000001b0: 35c8 283d 46fd 8d3c b237 3dbe 6a99 01be
000001c0: dbf0 bb3c 4f69 e9bd 3e2c 1e3d 1055 8ebd
000001d0: 662d c53d d5ff 2e3e 467e bf3d 5b66 83be
000001e0: 60e7 08be 13eb efbd 23d6 243d d947 a8bc
000001f0: 0dac 583e 6cc6 1f3d 842b 95bd 0a60 9d3d
00000200: f588 26bb 7ceb c2bc 0598 8ebc 2be1 f53c
00000210: ef1f f0bc 7746 ffbd 3c43 bdbd 41c6 083d
00000220: 8da4 54bd 4bdc 0f3e 4897 8b3d 38d8 213d
00000230: 597d 9bbd ddb3 b8bd 811d 3abe 545a a9bb
00000240: f35e ef3d 660f ddbc c270 8dbd c540 c63d
00000250: 3579 afbd bfa2 eb3d e800 0c3d 819f c03d
00000260: 708c bc3d 7a86 c93d 8feb c13d 05e2 373e
00000270: db4a 95be 765d 263d da93 60bc 6b85 50bc
00000280: 4b28 1a3d 379b afbd 8b03 27bc 82f1 af3d
00000290: 89b4 a53d fa72 fabd 9d1f ffbd 95d4 9bbc
000002a0: 6790 1f3e eec2 debc a3d4 43bc d06d aebd
000002b0: 1529 19bb 2f83 87bd 28a9 8abc 9c27 853d
000002c0: 984f 81bc a3e3 6c3d ef2f 34be e244 043e
000002d0: 7ca9 9ebd aec6 fbbb fbe5 303e 2001 533e
000002e0: 9cef ab3d 885f 19bd 1c4e a53d 7e18 d8bc
000002f0: 9cc1 f0bc 0737 5d3d 385f ce3d 1e34 213e
00000300: 559e 38be ea9d f83d 968c 273e 2502 363d
00000310: 489a 60bd 3979 013e ef48 013e e0f1 44be
00000320: 7bae 423d 8d67 2bbe 652d 4bbc 62ca 4a3d
00000330: 2162 51be f0a1 063e 446d dbbd 6b9a f7bd
00000340: 76a8 e13d 70c8 f9bc a902 f9bc c1ad a43d
00000350: 826a 6cbd eae8 333e ff59 593d f722 343d
00000360: 2123 90bd ab89 ca3c 2d27 6bbe f718 293e
00000370: a57d 98bd 16ff 033d 0343 47ba 3044 cdbd
00000380: b889 863d 05da 66bd b2fc 42be 5f04 f3bd
00000390: 8eb3 3c3d 91a4 04bd f285 7ebd 2211 423d
000003a0: 0f30 ff3c d175 9fbd 717e 40be 787d 6dbe
000003b0: e184 e1bd b50b b13c cb6b b3bd f4f0 5fbd
000003c0: 17da 4d3e 0ff3 df3d f601 82bc 667a 09be
000003d0: 6711 3ebe d8ae 563e ad47 d1bd ccd5 033d
000003e0: f715 4dbe 5f28 ab3d 2983 083c 6409 7d3d
000003f0: 0a18 473e be6a 763e 85c2 c6bc 9f68 203e
-0.10510839 -0.2784631 -0.018949108 -0.24842975 0.20251727 0.19031166 0.049282122 -0.21354358
-0.004379703 -0.039423607 0.04215878 0.14949498 0.08466188 0.009262612 0.12756558 0.34267932
-0.026234994 -0.16670886 0.015469457 -0.022188367 0.12724322 0.033264223 -0.23348829 -0.14466026
0.024112867 0.0040103435 -0.10969631 0.05422636 -0.047412585 -0.03484281 0.14339067 -0.08480246
-0.00900162 0.026575627 -0.088888034 -0.03383846 0.017283417 0.20892426 -0.16999763 -0.013514006
-0.041185807 -0.09780507 -0.040156834 -0.038344167 0.25085446 0.14525436 -0.11882162 -0.08140399
-0.017233867 -0.05475441 0.0057554464 -0.008155068 0.019046878 0.07846211 0.04674527 0.10948626
-0.05835404 -0.041975528 -0.03266167 0.052753728 0.077227876 -0.15398367 0.06097963 0.18569519
-0.14676844 0.077104084 -0.26703832 -0.074315615 0.20802827 -0.009203677 -0.018695263 0.02179397
0.07000758 -0.19561566 -0.1243608 0.197257 -0.177753 -0.23956782 -0.073992446 0.025195504
0.11825645 -0.20267574 -0.074739344 0.09996449 -0.1475755 -0.39706594 -0.040078968 0.09674149
-0.01423744 -0.08690187 -0.06795992 -0.09017296 0.14263356 0.18870616 0.035188373 -0.05583386
-0.0346535 -0.054100346 0.03348249 0.02716005 -0.076326616 0.097744934 0.1948879 -0.025213124
0.10529869 -0.1746405 -0.0759612 0.17985997 0.041206557 0.017332684 -0.18478277 -0.12656179
0.022941997 -0.11397039 0.03861641 -0.06949818 0.096278 0.1708978 0.093502566 -0.2566403
-0.13369513 -0.11714759 0.04024328 -0.020542072 0.21159382 0.03900759 -0.072836906 0.076843336
-0.0025411223 -0.023793928 -0.017406473 0.030014595 -0.029312102 -0.12464612 -0.092413396 0.033392195
-0.05191474 0.14048879 0.06815964 0.039512843 -0.075922675 -0.09018681 -0.18175317 -0.0051682387
0.11688032 -0.026984882 -0.069062725 0.096803226 -0.0856804 0.11505651 0.03418055 0.09405423
0.09206474 0.098401025 0.09468757 0.17957313 -0.29158673 0.040616475 -0.013707126 -0.012727122
0.037636083 -0.08574527 -0.010193716 0.08590986 0.08091075 -0.12228961 -0.12457202 -0.019022265
0.15582429 -0.02719256 -0.011952552 -0.08517039 -0.0023370434 -0.06616818 -0.016926363 0.065016955
-0.015785024 0.05783428 -0.1759641 0.12916902 -0.0774717 -0.0076835966 0.1727523 0.20605898
0.08395311 -0.03744462 0.08071539 -0.026378866 -0.029389195 0.054007556 0.10076755 0.15742537
-0.18029149 0.12139495 0.16362223 0.04443564 -0.054834634 0.12643899 0.12625478 -0.19232893
0.04752968 -0.1673872 -0.01240096 0.049509414 -0.2044759 0.13147712 -0.107142 -0.1209
0.110184595 -0.030491084 -0.030396776 0.080409534 -0.05771876 0.17569318 0.053064343 0.043978658
-0.0703795 0.024723848 -0.22964163 0.1651343 -0.0744584 0.03222569 -0.0007601233 -0.10022771
0.065692365 -0.056360263 -0.19041708 -0.11866068 0.046069674 -0.032383505 -0.06213946 0.04737962
0.031150846 -0.077861436 -0.18798234 -0.23192394 -0.11011673 0.021612028 -0.08760794 -0.05467315
0.20102726 0.109350316 -0.015870076 -0.13425598 -0.18561326 0.20965135 -0.10218749 0.032186314
-0.2002791 0.083573096 0.008332052 0.061776534 0.19442764 0.24064156 -0.024262676 0.1566491

bias f4 [32]
00000000: e4de 49be 03f6 1c3d 3f87 56bd 9d85 0dbd
00000010: e540 243e aa1e 06be 0bd8 e43d a8bb 723d
00000020: e606 0cbd 6516 8abd 0ee7 87bd 2262 d43c
00000030: eec1 1a3e 33df 1dbd a5f2 4cbd 09a1 71bd
00000040: 4551 3f3e 721c 69be 8bcd 8abd 88d8 413c
00000050: 31ce 543d 4801 01be fbae 2f3e ebba be3d
00000060: 57c1 1b3e a803 653d ba77 e8bd 7784 55be
00000070: 2d61 713d ef7e 62be c754 b7bd 3803 acbd
-0.19713932 0.038320553 -0.052375074 -0.03455125 0.1604038 -0.13097635 0.111740194 0.059260994
-0.034186266 -0.06742553 -0.06635867 0.0259257 0.15113041 -0.038542937 -0.05003609 -0.058991466
0.18683346 -0.22764757 -0.067774855 0.01183141 0.051954452 -0.12598145 0.17156594 0.093129955
0.15210472 0.05591169 -0.11350961 -0.20851313 0.058930565 -0.22118734 -0.08951717 -0.083990514

weight f4 [6, 32]
00000000: ea93 abbd 6e71 ccbc d6be 493d 4937 073e
00000010: ea17 f23c 3639 b8bd e0c1 07be 73de 8d3d
00000020: 69e4 80bd c631 db3d 9b83 523d bec5 5a3d
00000030: b98a 44bd d582 deb9 f845 9dbd 739a 56bd
00000040: ccb6 bebd 8557 72bd 1965 aebc 6e34 9ebd
00000050: 3a6e 753d 269b 95bc 764f 0f3e 468f b13b
00000060: b01c 2fbd 68f2 b0bc 2229 1d3e 3fda 013e
00000070: 92d4 9ebd 32de cc3d 64f8 863d 0c88 05be
00000080: 9d70 6e3c fc49 213e d2e1 6cbd 7c6d 0ebe
00000090: d17f ef3d 64a1 b53d 797d f9bc 6425 053e
000000a0: 01b2 8cbd 22b0 143e 9453 76bd c38f 3fbe
000000b0: d2bf 4a3c 33ab 2dbc a41d bb3c 88dd 533e
000000c0: 5d1a 3fbe 4729 f13e 7089 39bc 8ece e73d
000000d0: 2c7a 4f3d 975b c5bc 4b50 5f3d 0315 12be
000000e0: 4101 f03d 662c 53bd b13d 12bd 1955 e43d
000000f0: 229d aabb 7c16 f43c d2d9 e73d 7114 4cbe
00000100: 3358 67be d70f 8c3e 1372 54bd 573f 303e
00000110: 215b 03be 1e30 fabd c35a 303c 874d 2a3d
00000120: a5c4 c13d 1e82 90bd ee6a 72be 7596 92bd
00000130: 6ba5 f43d 5814 13bd 0367 81be fea1 51bd
00000140: bc6b 1ebb 7110 9b3d 9145 bf3d a9bf 5d3e
00000150: 9d29 2abe 2add 01bd b05a 2c3e b527 2d3d
00000160: 3257 a23e 923e 343e 31d9 613e 6fa7 70bd
00000170: ccd6 703d 9185 b6bd a133 50be 07c9 32bd
00000180: 1b84 6f3c ccde da3c 4ab2 c43b 118d dcbc
00000190: 4525 933d b73e 40bc b10b 073e 513d 9ebd
000001a0: 4fd1 76bd 47ea 4c3d 1fdd 79bd ebd4 8abc
000001b0: 48a9 9c3d aab2 54bc 7f6f 113e 43cf d1bd
000001c0: 00fc 6dbd eabd b4bd d5be 353d e361 bdbc
000001d0: fdbd 0ebb ca70 d2bd 64e3 51bd dbaa bebd
000001e0: fe1c e73c 6885 653d 7006 fa3d 8af1 c9bd
000001f0: d0ef 76bd 9852 dfbd 9d61 8ebd 48e4 5fbd
00000200: af58 02be c6b8 56be 7257 353d 0b7a 44be
00000210: 1bd9 a43d a4ce 3dbe f0fd 3e3d 17bc 023d
00000220: 8dc2 5b3e ae4c e2bc f0d3 c33d 702b 81bc
00000230: 0d50 b53d ebd3 2e3e 505b 77bd c274 7dbe
00000240: 8a9a c63d 7b32 1abe 765a f43c f15f 03bd
00000250: 2e7b b23d 9562 95be 9238 023e fb56 a73d
00000260: 5c03 9cbd 03d3 863d ff87 bbbd 984d e2bb
00000270: f347 183e 0c6b 1f3c 3817 9c3a 2c56 e73d
00000280: c188 033e 7e88 d3bd a162 41be 892c 8fbd
00000290: 93cc 2fbe df48 d73d ecb7 9abd 2fae f1bd
000002a0: 7016 563d e105 d43c 7982 783e b08d 80bd
000002b0: 739c a43c fc76 ae3d bf8f 1e3e dfe8 3abe
000002c0: 2f98 92be 017a fd3d fdfa 59bd 83bd 82bd
000002d0: 734b c63d 1f01 ab3d 4ff7 3dbe 573e 4e3b
000002e0: b075 1abe 8d25 14bd 3553 703e 682e e83c
000002f0: 2a72 83bd 8eec 0d3e 7c5f 253d 8b4a 343e
-0.08377822 -0.024956431 0.04925426 0.13204683 0.029552419 -0.08995287 -0.13257551 0.069271944
-0.06293566 0.10702853 0.05139504 0.053411238 -0.04798386 -0.00042440617 -0.07679361 -0.052393388
-0.093122095 -0.059165496 -0.021288441 -0.07724844 0.059919573 -0.018262457 0.13995156 0.005418691
-0.042751968 -0.021599963 0.15347722 0.1268091 -0.07755388 0.10003318 0.065903455 -0.13040179
0.014553216 0.15750879 -0.057832547 -0.13908952 0.11694301 0.088686734 -0.030455338 0.13002545
-0.06869889 0.14520314 -0.0601383 -0.18707184 0.012374835 -0.010599899 0.022841282 0.20689976
-0.186624 0.47101805 -0.011324272 0.11318694 0.05065362 -0.024091525 0.054519933 -0.14265828
0.11718989 -0.051556014 -0.035703365 0.111490436 -0.00520672 0.029795878 0.11320843 -0.19929673
-0.22592239 0.27355835 -0.051866602 0.17211662 -0.12827732 -0.12216209 0.010763827 0.041577842
0.09461335 -0.07056068 -0.23673603 -0.07157604 0.119456135 -0.035908073 -0.25273904 -0.05117988
-0.0024173101 0.07571495 0.093394406 0.21655144 -0.16617437 -0.03170506 0.1683147 0.042274196
0.3170715 0.17601994 0.22055508 -0.058753427 0.058798596 -0.089121945 -0.20332195 -0.043648746
0.014618899 0.026717566 0.006002699 -0.026922734 0.07184843 -0.011733702 0.13188054 -0.07726539
-0.060258206 0.05002811 -0.061001893 -0.01694723 0.07649475 -0.01298205 0.14202689 -0.1024461
-0.058101654 -0.08825286 0.044371445 -0.023117965 -0.0021780722 -0.10275419 -0.051242247 -0.09309932
0.028212067 0.05603543 0.12208259 -0.09860523 -0.060287297 -0.109044254 -0.06952212 -0.054661065
-0.12729143 -0.20968923 0.044272847 -0.1918718 0.08049222 -0.18535858 0.046628892 0.031917658
0.21460934 -0.027624454 0.09561908 -0.015767783 0.08853159 0.17073028 -0.060389817 -0.24751571
0.09697445 -0.1505832 0.029828291 -0.03207392 0.08714901 -0.29176775 0.12716892 0.08170887
-0.07617828 0.06583216 -0.091567986 -0.0069062226 0.14871196 0.009730112 0.0011908775 0.11295733
0.12845136 -0.10328768 -0.1888528 -0.06990916 -0.17167883 0.10511946 -0.075546116 -0.11800801
0.05226749 0.02588171 0.24268521 -0.06277025 0.020094132 0.08518788 0.15484522 -0.18252896
-0.28631732 0.12376786 -0.053217877 -0.06383803 0.096823595 0.08349823 -0.18551372 0.0031470263
-0.15083957 -0.036168624 0.23469241 0.02834244 -0.064182594 0.1385977 0.040374264 0.17606561

bias f4 [6]
00000000: 2003 19bd 02c1 d7bc 38a8 963d bf93 a23d
00000010: 6c7d bdbd 07f9 993d
-0.037356496 -0.02633715 0.07356304 0.079383366 -0.09252438 0.07518201
